models/model_best.pt (torch, 255071 bytes, 48 tensors)

conv1.0.weight f4 [4, 1, 3, 3]
-0.29834133 -0.0135684945 0.08533771 -0.047198102 0.32316992 0.11880375 -0.25853157 -0.23004746
-0.26987633 0.14583501 0.23976895 -0.13603824 -0.055302255 0.18108176 0.26436663 0.16092172
0.28966674 -0.22946052 -0.1605251 -0.16116317 0.07459733 0.3321135 0.29037678 0.202839
-0.073744446 -0.19404411 -0.14965414 0.06542068 -0.1993229 -0.05518411 -0.13678023 -0.14540505
0.0025605166 0.19599293 -0.36611524 -0.12592737
00000000: 32c0 98be 644e 5ebc 8ac5 ae3d cc52 41bd
00000010: 8776 a53e 614f f33d 405e 84be 9091 6bbe
00000020: 3b2d 8abe c655 153e fe85 753e 9c4d 0bbe
00000030: 9e84 62bd 7f6d 393e 105b 873e aac8 243e
00000040: 334f 943e b3f7 6abe b160 24be f507 25be
00000050: 7cc6 983d c80a aa3e 44ac 943e 07b5 4f3e
00000060: 5407 97bd 80b3 46be ef3e 19be 47fb 853d
00000070: 4d1b 4cbe bc08 62bd 1e10 0cbe 10e5 14be
00000080: 57ce 273b 5fb2 483e 7573 bbbe 1bf3 00be

conv1.0.bias f4 [4]
0.08643739 -0.12877104 -0.00748556 0.13674203
00000000: 1606 b13d 8edc 03be 6e49 f5bb 1a06 0c3e

conv1.2.weight f4 [4, 4, 3, 3]
0.07669316 -0.029307982 -0.05765584 -0.0341358 -0.07041646 -0.15971015 0.0020285274 0.16767375
-0.038708758 0.06484231 -0.102196224 0.059675388 -0.09092663 -0.08134393 0.079484895 0.113034144
-0.14117967 0.17422643 0.13796769 0.038086865 -0.18596326 -0.09941762 -0.0788533 -0.08621932
0.16417111 0.07723185 -0.06789282 0.04516951 -0.026914204 0.102401316 -0.1567829 -0.023295548
0.14383331 0.08811625 0.10981135 -0.022637943 0.11258421 0.10641876 0.033156868 -0.16169462
0.10736587 0.06520973 -0.06692301 -0.05399345 -0.019384649 0.045669474 -0.01614261 -0.16737194
-0.07906363 0.09705849 -0.14172107 -0.07321812 0.13260366 0.061945092 0.084199406 -0.115738794
-0.092983305 -0.10757425 -0.21598566 0.12224988 0.15715842 0.14548574 0.15841706 -0.03500834
0.12987942 0.036729395 -0.1371355 0.03644999 -0.13104662 -0.07517204 -0.11580758 -0.030002031
0.040931422 -0.04505683 -0.030980155 0.10859996 -0.14911067 0.08319558 0.0565794 0.21952042
0.010462495 0.14877805 -0.09548194 0.12764947 -0.031024162 -0.099531375 0.078372546 0.08187019
-0.015882155 0.029975528 0.06534787 0.024919227 0.047611114 -0.17926046 -0.07143505 0.1745921
-0.19039655 -0.14473121 0.026457634 0.11478277 0.03697402 0.1892643 0.17887835 0.14341314
0.16822596 0.019782811 0.1916817 0.089417934 -0.020336328 0.034860954 0.06753671 -0.08712109
0.11565298 -0.182598 -0.107509166 -0.15903854 -0.1832561 -0.09995109 -0.11304248 -0.09685661
-0.08129521 0.13901323 -0.15786776 0.12491161 0.019370742 -0.09814197 0.045493394 -0.14937231
0.060800463 -0.07241005 0.045921206 -0.13308884 0.079252385 -0.03354897 -0.15372609 0.13886125
-0.13498229 -0.039163474 0.01640269 0.06734652 0.08576785 -0.09424012 0.021803264 -0.059904244
00000000: 4e11 9d3d 4b17 f0bc 8828 6cbd fbd1 0bbd
00000010: 8136 90bd 0f8b 23be 0bf1 043b abb2 2b3e
00000020: 138d 1ebd 0ccc 843d 414c d1bd 2e6e 743d
00000030: be37 babd a597 a6bd fac8 a23d 727e e73d
00000040: 6791 10be 6a68 323e 6747 0d3e f900 1c3d
00000050: 276d 3ebe 779b cbbd d77d a1bd c193 b0bd
00000060: 791c 283e bb2b 9e3d 640b 8bbd aa03 393d
00000070: 2d7b dcbc c8b7 d13d b28b 20be 4ed6 bebc
00000080: 0a49 133e 4b76 b43d c6e4 e03d 3573 b9bc
00000090: 8d92 e63d 14f2 d93d 7fcf 073d 4693 25be
000000a0: a3e2 db3d ae8c 853d ee0e 89bd 3c28 5dbd
000000b0: 8ecc 9ebc ea0f 3b3d 823d 84bc 8d63 2bbe
000000c0: 1dec a1bd 9ac6 c63d 541f 11be 62f3 95bd
000000d0: 41c9 073e 23ba 7d3d bd70 ac3d 7608 edbd
000000e0: 086e bebd e34f dcbd 582b 5dbe 255e fa3d
000000f0: 23ee 203e 37fa 143e 1538 223e e864 0fbd
00000100: 1cff 043e 9071 163d 406d 0cbe 964c 153d
00000110: 1631 06be ccf3 99bd 862c edbd d2c6 f5bc
00000120: b5a7 273d 838d 38bd 18ca fdbc a869 de3d
00000130: 78b0 18be 7262 aa3d cdbf 673d f6c9 603e
00000140: e26a 2b3c 4659 183e 098c c3bd 8bb6 023e
00000150: 6226 febc 1bd7 cbbd c981 a03d 8fab a73d
00000160: 4b1b 82bc 3d8f f53c 1bd5 853d 6823 cc3c
00000170: df03 433d 0e90 37be 8a4c 92bd 45c8 323e
00000180: 50f7 42be 6b34 14be aebd d83c 3b13 eb3d
00000190: 1272 173d 80ce 413e e32b 373e e5da 123e
000001a0: 6d43 2c3e 900f a23c 3548 443e c020 b73d
000001b0: 5f98 a6bc 5cca 0e3d b050 8a3d 8b6c b2bd
000001c0: 78db ec3d f8fa 3abe c42d dcbd 00db 22be
000001d0: 7da7 3bbe 28b3 ccbd d182 e7bd c25c c6bd
000001e0: 1a7e a6bd 7c59 0e3e 16a8 21be a8d1 ff3d
000001f0: 64af 9e3c a8fe c8bd 4857 3a3d 0ef5 18be
00000200: e809 793d b84b 94bd e017 3c3d 7148 08be
00000210: 134f a23d a56a 09bd 5f6a 1dbe a531 0e3e
00000220: cc38 0abe e169 20bd ef5e 863c f9ec 893d
00000230: 0ea7 af3d f700 c1bd c29c b23c 275e 75bd

conv1.2.bias f4 [4]
-0.19791342 -0.12752537 -0.017676178 0.07869685
00000000: d1a9 4abe 0396 02be a2cd 90bc d02b a13d

conv2.0.weight f4 [8, 4, 3, 3]
-0.04881514 0.05819866 -0.09972438 -0.08352617 0.11131656 -0.10932672 0.0754181 -0.023583055
0.027745329 0.12209036 0.15754268 -0.12268223 -0.1930454 -0.029344432 -0.19407074 -0.002867954
-0.04735246 0.07484908 -0.13500051 0.094411075 0.0033871653 -0.14293747 -0.0139184445 -0.05967493
-0.028412456 -0.070874505 -0.076332204 0.10896941 -0.12558256 -0.03480183 -0.049888708 -0.11442911
-0.09927383 0.122941926 0.037758213 0.01479766 -0.011188458 -0.011213422 -0.1320936 -0.072946794
0.10145042 -0.1017716 0.095145166 -0.09944419 -0.0260742 -0.06379397 -0.08964158 0.05957038
0.10697326 0.09725586 -0.07373734 -0.16618901 -0.18135005 -0.12951177 -0.026871514 0.0950119
-0.030752013 -0.14837793 -0.15127921 0.020668725 -0.106681876 -0.017855784 -0.15376002 0.087623484
0.059083417 0.057703648 0.011103237 -0.10853782 -0.04781051 0.0835581 -0.0026278656 0.123156436
0.1598285 0.06740651 -0.109895155 0.091759756 -0.01637387 0.12274053 -0.09120043 0.079127565
-0.049289823 -0.048153665 -0.02781728 -0.0944209 -0.13015006 -0.049401578 -0.0021910453 0.1430309
-0.10796169 -0.06746018 0.10404827 0.1294312 0.16670798 -0.107458346 -0.1659386 -0.088410325
-0.14896055 0.07041076 0.09416794 -0.12452049 -0.0400248 -0.12271659 -0.10520306 0.07183262
-0.017017135 0.031063056 0.04517508 -0.07315015 -0.06182721 -0.044150405 0.10916539 0.03554578
0.08193756 -0.0052946666 0.082032695 -0.08170837 -0.037631683 -0.051108375 -0.014875497 -0.111611456
0.12564032 0.041001868 -0.022276483 0.104747124 -0.0733552 -0.106043145 0.1304543 -0.038256805
0.10685405 -0.0030333865 -0.10058551 -0.045257825 0.10140605 -0.12903188 0.15181477 -0.13939632
-0.084077336 -0.024513314 -0.033631336 -0.06906955 -0.1821595 -0.019795414 0.08608353 -0.14178573
-0.0103271445 -0.048716992 -0.0035215975 -0.10941418 -0.075518385 -0.066678435 -0.17942947 -0.14403962
0.08208606 -0.05593657 -0.22917993 0.020459576 -0.002197841 -0.2057553 0.04280497 -0.031001313
-0.030306729 -0.08472637 -0.18376218 -0.02567143 0.1277274 -0.009240669 -0.06845963 0.14508402
0.030982701 -0.016507644 -0.11065709 0.063962705 -0.14764427 -0.03199402 -0.04619688 -0.03867922
0.15219438 0.15369086 0.017118318 0.040680557 -0.13125344 -0.14286013 -0.074410714 -0.16936892
-0.077297084 0.086383946 0.042587172 -0.025415517 -0.013334188 -0.09983212 -0.10261568 -0.13557437
0.0075038555 -0.08333917 -0.17345308 0.14159061 0.15967342 0.09345308 0.015485487 0.12790266
0.151578 -0.030321132 -0.10977674 0.07990502 -0.15800343 0.10129283 0.041739915 -0.09214373
0.03245377 -0.05598832 -0.10008833 0.07456352 0.12457214 -0.022811877 0.06376117 -0.05145344
-0.15241866 -0.10848203 -0.037936218 -0.11996936 -0.02334213 -0.054943804 0.008927931 -0.12818056
0.025509289 -0.13357158 -0.05915508 -0.18710978 0.11527054 -0.16290411 -0.12541811 -0.093821995
0.09112346 -0.057192065 0.041361332 -0.14162573 0.00924654 -0.080537006 0.039016727 -0.030051405
0.1199798 -0.102287725 0.08168779 -0.015117198 -0.1529164 -0.083377674 0.11382254 -0.0827135
0.13834643 -0.05676981 0.006538978 -0.053001408 0.14957379 0.08846012 0.13837636 -0.108148314
00000000: 62f2 47bd b861 6e3d 4c3c ccbd c50f abbd
00000010: f0f9 e33d b0e6 dfbd ce74 9a3d 4031 c1bc
00000020: 2c4a e33c 830a fa3d de52 213e d240 fbbd
00000030: b1ad 45be bc63 f0bc 7bba 46be 49f4 3bbb
00000040: a7f4 41bd 794a 993d 933d 0abe 985a c13d
00000050: 34fb 5d3b 335e 12be 300a 64bc b36d 74bd
00000060: 3dc1 e8bc a726 91bd 0f54 9cbd 5b2b df3d
00000070: b798 00be 5d8c 0ebd 1a58 4cbd cf59 eabd
00000080: 1450 cbbd fac8 fb3d 5ba8 1a3d e271 723c
00000090: cb4f 37bc 80b8 37bc 8b43 07be 2165 95bd
000000a0: 3dc5 cf3d a16d d0bd 78db c23d 65a9 cbbd
000000b0: 9099 d5bc 6aa6 82bd 0196 b7bd 1200 743d
000000c0: cc14 db3d 152e c73d 9a03 97bd 742d 2abe
000000d0: d4b3 39be bc9e 04be a621 dcbc 9995 c23d
000000e0: a5eb fbbc 62f0 17be f0e8 1abe 7551 a93c
000000f0: 077c dabd 4b46 92bc 4473 1dbe f173 b33d
00000100: 7401 723d a95a 6c3d 5aea 353c 1449 debd
00000110: f4d4 43bd 8220 ab3d 4538 2cbb 7139 fc3d
00000120: 15aa 233e 6d0c 8a3d b610 e1bd 8aec bb3d
00000130: 7f22 86bc 635f fb3d 4bc7 babd a20d a23d
00000140: 20e4 49bd c73c 45bd 10e1 e3bc bf5f c1bd
00000150: 0f46 05be 4f59 4abd a497 0fbb b176 123e
00000160: 051b ddbd 9028 8abd 4217 d53d 9d89 043e
00000170: 7fb5 2a3e 1f13 dcbd cfeb 29be 7910 b5bd
00000180: 1d89 18be 8433 903d 1fdb c03d 9904 ffbd
00000190: 0bf1 23bd d652 fbbd b474 d7bd fb1c 933d
000001a0: 8567 8bbc f377 fe3c 8109 393d bfcf 95bd
000001b0: 873e 7dbd 0ed7 34bd 1b92 df3d 7498 113d
000001c0: e1ce a73d e27e adbb c200 a83d b856 a7bd
000001d0: ae23 1abd 0457 51bd 5bb8 73bc 8c94 e4bd
000001e0: dba7 003e 93f1 273d 2c7d b6bc a985 d63d
000001f0: 403b 96bd 262d d9bd d095 053e 2bb3 1cbd
00000200: 4cd6 da3d c8cb 46bb c7ff cdbd 4560 39bd
00000210: faad cf3d ef20 04be 5575 1b3e e9bd 0ebe
00000220: bd30 acbd 25d0 c8bc 03c1 09bd 5674 8dbd
00000230: 0588 3abe fe29 a2bc 904c b03d 4730 11be
00000240: 2f33 29bc 788b 47bd 9aca 66bb 8b14 e0bd
00000250: 62a9 9abd b48e 88bd 5cbc 37be 1f7f 13be
00000260: bc1c a83d bf1d 65bd 25ae 6abe d79a a73c
00000270: a709 10bb 84b1 52be 4454 2f3d 77f6 fdbc
00000280: d145 f8bc 0585 adbd 272c 3cbe e44c d2bc
00000290: f9ca 023e 2d66 17bc 9034 8cbd e890 143e
000002a0: 6fcf fd3c 0a3b 87bc 2fa0 e2bd e1fe 823d
000002b0: 0f30 17be 290c 03bd f138 3dbd 1a6e 1ebd
000002c0: d8d8 1b3e 2361 1d3e b73b 8c3c a8a0 263d
000002d0: 4d67 06be ed49 12be a564 98bd 0c6f 2dbe
000002e0: ef4d 9ebd 11ea b03d e36f 2e3d 3434 d0bc
000002f0: a377 5abc c874 ccbd 2b28 d2bd 02d4 0abe
00000300: e7e2 f53b baad aabd af9d 31be 21fd 103e
00000310: 6e81 233e 5464 bf3d d7b6 7d3c eaf8 023e
00000320: 4337 1b3e 0664 f8bc a1d2 e0bd 3ea5 a33d
00000330: a7cb 21be 9e72 cf3d 79f7 2a3d dab5 bcbd
00000340: 3fee 043d 0254 65bd 1cfb ccbd c2b4 983d
00000350: ae1f ff3d f9df babc 3795 823d d8c0 52bd
00000360: a313 1cbe d42b debd 0263 1bbd 7fb2 f5bd
00000370: ff37 bfbc c10c 61bd 7546 123c c441 03be
00000380: dbf8 d03c fdc6 08be 994c 72bd b599 3fbe
00000390: f612 ec3d 56d0 26be 9b6d 00be bf25 c0bd
000003a0: f09e ba3d 3a42 6abd 806a 293d 5606 11be
000003b0: cd7e 173c 96f0 a4bd 01d0 1f3d 5d2e f6bc
000003c0: f8b7 f53d 3a7c d1bd ee4b a73d 20ae 77bc
000003d0: 1e96 1cbe eac1 aabd cb1b e93d b265 a9bd
000003e0: b0aa 0d3e 7687 68bd ec44 d63b 0118 59bd
000003f0: df29 193e 942a b53d 88b2 0d3e dd7c ddbd

conv2.0.bias f4 [8]
0.021455372 -0.045790505 -0.17564096 -0.21184775 0.093247965 0.12149687 0.08328897 -0.011646734
00000000: 2dc3 af3c d38e 3bbd 39db 33be 9eee 58be
00000010: caf8 be3d 5ad3 f83d 6893 aa3d f1d1 3ebc

conv2.2.weight f4 [8, 8, 3, 3]
-0.04025055 -0.009264211 0.081149094 0.14775616 -0.06420525 0.044880137 0.12555696 0.14221652
0.05616652 0.15512761 -0.056447074 0.023739023 0.058019735 0.05394902 0.04856898 0.05973093
0.12322646 0.00050020276 0.071740866 0.082402945 0.10703896 0.040437423 0.061169833 -0.051567696
0.037720423 0.07225675 0.05144699 0.04010999 -0.045888826 0.028132055 -0.028438 -0.04910721
0.09258997 -0.055027023 -0.080069914 0.03543008 0.115372464 -0.04193553 0.13515654 0.13262512
0.064509764 0.18718992 0.16276112 0.14923373 0.062322225 0.105980605 0.05267251 -0.03638978
-0.009794738 -0.12441017 -0.011218832 -0.109462745 0.052865177 -0.10199121 -0.019618783 -0.02230745
-0.01672167 0.16064072 0.016092189 0.14384365 0.1366741 0.13768144 0.013816959 -0.0039526923
0.10274903 0.09781224 0.12144604 -0.048002247 -0.06588696 -0.109380364 -0.008494334 -0.020531092
-0.07281058 -0.03490921 0.073071 -0.015083767 0.094626136 -0.10028391 0.07933741 -0.051193096
0.031591117 0.110093266 -0.053673044 -0.016563203 0.09788341 0.039710797 -0.0933804 0.06985468
-0.063704915 -0.027092785 0.06580354 -0.08805331 -0.024827424 -0.08898372 0.033874363 -0.0014644532
0.03452565 0.10912329 -0.025379732 -0.02346731 0.093830556 0.071292065 0.041467085 -0.044154692
0.11613392 -0.015181774 0.106784925 0.055930816 0.06970862 -0.062140148 -0.086047865 -0.02762781
0.122181445 0.037750643 0.022607058 -0.03515513 0.005660209 -0.0976194 -0.092458464 -0.1340906
-0.03812372 -0.05709264 0.124445684 -0.09426228 0.09569216 0.10027273 -0.06686152 -0.009029978
0.082784615 -0.1009309 0.0054557645 -0.056200575 0.098923475 -0.02394619 -0.02011646 0.07715924
0.14100544 -0.045591682 -0.120613866 -0.06231998 0.013554825 -0.11778501 -0.11389418 -0.039416254
0.093982175 0.017877243 -0.05233436 -0.0037380352 0.06655786 0.12072286 0.044550236 0.08499584
-0.108385906 0.018561319 0.03810438 0.03902946 0.06884098 0.008192193 0.10404526 0.062279057
-0.07234293 0.09825843 -0.07578549 0.09575617 -0.09629446 -0.024535643 -0.08703712 0.09081037
0.108162165 0.0598869 -0.0010516598 -0.025606694 -0.06748962 0.02935978 0.036779094 -0.08605779
-0.15111959 0.03982315 0.13493669 -0.10175902 -0.012977467 -0.12725177 0.12931962 -0.14073701
0.061522227 -0.09921763 0.080222435 0.014767879 0.0605918 0.03882082 0.03478586 0.11708318
0.022559762 -0.07313537 -0.096916765 0.040688816 0.0468345 -0.11984706 0.06344317 0.009943393
0.05216344 -0.07119322 -0.10972151 0.059920356 0.036528453 -0.09261584 -0.082282424 0.029976359
0.049167085 0.04749098 -0.08135939 -0.016064983 0.062897034 0.06150883 0.06344377 0.035982277
-0.025329486 0.13169798 0.08511512 0.011496562 -0.0314359 0.05435308 -0.07518542 0.043093417
-0.07968251 0.09956689 -0.055435557 -0.07057371 -0.039628357 -0.061126977 0.08368589 0.10730129
0.058715217 0.015471703 -0.045954447 0.07499205 0.06505261 -0.118883535 0.09231872 0.020764677
0.034536507 -0.05525479 -0.034068212 -0.03906758 -0.13556014 0.06627114 -0.016341075 0.0020970816
-0.116565 0.06548353 0.060463186 0.070848145 -0.0068857023 0.032907773 -0.07092955 -0.010325397
00000000: c3dd 24bd ebc8 17bc 7f31 a63d 644d 173e
00000010: 0b7e 83bd 3cd4 373d 0192 003e 35a1 113e
00000020: dd0e 663d c6d9 1e3e 0c35 67bd 5778 c23c
00000030: 1aa6 6d3d a6f9 5c3d 44f0 463d 6ba8 743d
00000040: 275e fc3d 0a20 033a e0ec 923d e0c2 a83d
00000050: 3e37 db3d b6a1 253d 388d 7a3d a638 53bd
00000060: bb80 1a3d 59fb 933d 14ba 523d 5f4a 243d
00000070: ecf5 3bbd 3275 e63c cff6 e8bc a424 49bd
00000080: cf9f bd3d 0464 61bd b2fb a3bd 221f 113d
00000090: 6648 ec3d 97c4 2bbd 7a66 0a3e e1ce 073e
000000a0: b21d 843d b7ae 3f3e daaa 263e bad0 183e
000000b0: 9745 7f3d 5c0c d93d 21bf 573d 730d 15bd
000000c0: 1c7a 20bc c2ca febd 31cf 37bc 012e e0bd
000000d0: 2889 583d c4e0 d0bd 92b7 a0bc 1dbe b6bc
000000e0: e2fb 88bc 007f 243e c4d3 833c c04b 133e
000000f0: 4cf4 0b3e 5dfc 0c3e 8760 623c 9685 81bb
00000100: 156e d23d c951 c83d b4b8 f83d 019e 44bd
00000110: beef 86bd d002 e0bd d22b 0bbc d230 a8bc
00000120: b71d 95bd f6fc 0ebd 40a6 953d e721 77bc
00000130: 59cb c13d a761 cdbd a77b a23d daaf 51bd
00000140: b065 013d 9478 e13d 44d8 5bbd 8eaf 87bc
00000150: 1977 c83d caa7 223d 393e bfbd f80f 8f3d
00000160: b977 82bd b0f1 ddbc 02c4 863d 4b55 b4bd
00000170: e262 cbbc 193d b6bd d8bf 0a3d e5f2 bfba
00000180: c56a 0d3d 087c df3d 28e9 cfbc 843e c0bc
00000190: 3c2a c03d 9301 923d 64d9 293d 8ddb 34bd
000001a0: 9fd7 ed3d fabc 78bc 0eb2 da3d b617 653d
000001b0: 65c3 8e3d ab86 7ebd dd39 b0bd b853 e2bc
000001c0: 443a fa3d 6ba0 1a3d 7032 b93c d3fe 0fbd
000001d0: 4679 b93b aeec c7bd dd5a bdbd 0c4f 09be
000001e0: 9e27 1cbd f9d9 69bd 61dd fe3d 950c c1bd
000001f0: 40fa c33d ca5b cd3d b1ee 88bd 79f2 13bc
00000200: fb8a a93d dcb4 cebd 45c6 b23b 9332 66bd
00000210: 6498 ca3d cd2a c4bc 46cb a4bc aa05 9e3d
00000220: bb63 103e 58be 3abd 6704 f7bd 3c43 7fbd
00000230: 0f15 5e3c 4439 f1bd 5a41 e9bd f072 21bd
00000240: ba79 c03d 4c73 923c 8e5c 56bd d3f9 74bb
00000250: 7d4f 883d 8c3d f73d 4f7a 363d 4d12 ae3d
00000260: 6ef9 ddbd e80d 983c 5713 1c3d 5bdd 1f3d
00000270: 80fc 8c3d 8c38 063c ae15 d53d 5318 7f3d
00000280: 8828 94bd b73b c93d 6c35 9bbd d01b c43d
00000290: 0836 c5bd f9fe c8bc 8440 b2bd cafa b93d
000002a0: 2084 dd3d f74b 753d d9d7 89ba 21c5 d1bc
000002b0: ff37 8abd ec83 f03c ada5 163d 113f b0bd
000002c0: 18bf 1abe 991d 233d d82c 0a3e 0867 d0bd
000002d0: 719f 54bc 4a4e 02be 5d6c 043e 5d1d 10be
000002e0: bbfe 7b3d 9d32 cbbd a94b a43d f9f4 713c
000002f0: 1b2f 783d 9502 1f3d 9e7b 0e3d 4ec9 ef3d
00000300: 40cf b83c ffc7 95bd 4c7c c6bd 51a9 263d
00000310: 88d5 3f3d 6072 f5bd 7eee 813d 9de9 223c
00000320: 55a9 553d c0cd 91bd acb5 e0bd 0c6f 753d
00000330: dc9e 153d 60ad bdbd b083 a8bd fb90 f53c
00000340: 6d63 493d e785 423d c09f a6bd b69a 83bc
00000350: 29d0 803d aff0 7b3d cfee 813d 2762 133d
00000360: c87f cfbc d6db 063e d650 ae3d 135c 3c3c
00000370: eec2 00bd 56a1 5e3d d0fa 99bd b982 303d
00000380: 9530 a3bd bae9 cb3d 6510 63bd f388 90bd
00000390: 5851 22bd 4860 7abd 8263 ab3d c7c0 db3d
000003a0: 5e7f 703d 077d 7d3c bb3a 3cbd 6f95 993d
000003b0: 4e3a 853d 3679 f3bd 9911 bd3d af1a aa3c
000003c0: 2776 0d3d d952 62bd 1c8b 0bbd 5405 20bd
000003d0: 47d0 0abe 2ab9 873d b8dd 85bc 316f 093b
000003e0: a1b9 eebd 3b1c 863d 3fa8 773d d518 913d
000003f0: 75a1 e1bb 4dca 063d 8343 91bd db2b 29bc

conv2.2.bias f4 [8]
-0.12865612 -0.048965584 -0.1120693 -0.104363516 -0.14918713 -0.082671 -0.05932368 -0.104963146
00000000: 6ebe 03be 2390 48bd 9784 e5bd 8abc d5bd
00000010: 83c4 18be 6a4f a9bd 63fd 72bd ebf6 d6bd

conv3.0.weight f4 [16, 8, 3, 3]
-0.15220983 -0.1588286 -0.120246 -0.0433543 -0.12329806 0.04893805 -0.067765445 -0.054890547
-0.008519032 0.0263034 -0.0360125 -0.09600572 0.14232953 0.08253708 0.065120265 -0.04477885
0.07039245 0.026647545 -0.13701084 0.012282834 0.0043928926 0.021841701 0.021666208 0.10422775
-0.08555151 -0.10034864 -0.12630081 0.11612055 -0.047750723 -0.0130092045 0.06065093 0.050541047
0.032155648 -0.10226656 0.08759916 -0.08325972 0.07724549 -0.091418065 -0.012336234 0.017398315
-0.04778152 0.031111166 0.13201901 0.11264008 0.111790106 -0.04966277 -0.020499635 0.019995583
-0.00016816397 -0.06996918 0.086116046 0.15915301 0.07142978 0.13115354 0.060294665 -0.07157895
-0.108381175 0.02833562 0.08528514 0.03688878 0.038978554 -0.02204546 -0.11858302 -0.11978138
0.04404704 0.054324735 -0.011941746 0.17234841 0.048470877 0.08275239 0.092461154 -0.040001955
-0.070836686 0.10801302 -0.0031443133 0.07982451 -0.046530563 0.052505318 0.032006532 0.046653412
-0.16475847 -0.10851736 -0.03961824 -0.16339743 -0.046642337 -0.18857396 -0.073741086 -0.08047737
-0.050545245 -0.09255923 0.10754619 0.03620758 -0.004942174 -0.07342809 0.078710556 -0.13016221
-0.071613014 -0.13065869 0.0053225295 0.09570996 0.040758662 0.04881328 -0.042128354 -0.12526084
0.037180893 -0.15556929 0.03971073 0.03178752 -0.055251654 0.008306446 -0.067928486 0.046501376
-0.0044387714 -0.07335437 -0.0917161 0.009005079 0.00041173055 -0.07097216 -0.07516294 -0.06600546
-0.07048168 -0.15306753 -0.12729141 -0.12866324 0.038183685 -0.087495394 -0.12630402 0.015352746
-0.05942654 0.02874206 0.03752056 -0.015273145 -0.03904928 0.05186034 0.04880471 -0.054094624
0.042266198 -0.023082918 -0.13239437 -0.11287789 -0.10782555 -0.12384363 -0.028591262 -0.06532969
0.019603027 0.010549902 -0.031159747 -0.03041476 -0.027840506 -0.03226106 -0.049093 -0.124291115
-0.017542947 -0.04853323 -0.08457927 0.03639584 0.07989514 0.04502424 -0.094007865 0.09165386
0.029873423 0.006366008 0.04751537 0.012451569 -0.20054528 -0.016512772 -0.016725063 -0.078189604
0.06795722 0.075118735 0.030030575 0.12923084 0.03526317 -0.13711897 0.06509807 0.0008298469
-0.104960896 0.02167442 -0.061651412 -0.0897577 -0.10229695 -0.050162915 -0.09865178 0.08332159
-0.00786528 0.06487736 0.051320396 0.006455511 0.07202972 0.06687048 0.11714969 -0.04459052
-0.023835255 -0.0053144023 0.08564909 -0.092667595 -0.104490615 -0.000637045 -0.048987515 0.02577401
-0.13437176 0.05037893 0.033162534 0.12985787 0.12521042 0.11573912 0.025432203 -0.2006586
-0.20150928 -0.012925051 -0.11645744 0.105868645 0.11893144 -0.13744374 -0.12407624 -0.033407696
-0.034033254 0.075254366 0.095955 0.07858992 -0.032046143 0.03869389 0.0066978605 0.002001021
-0.093817085 -0.02944251 -0.098963894 -0.06943086 -0.09343513 -0.0018042153 0.04530343 0.06336076
-0.021784926 0.068921804 0.15147214 0.031015154 -0.048839834 0.021885922 0.15705428 0.04959327
-0.032651868 0.09523725 0.18054847 0.047201026 0.07783517 -0.034355555 0.08671813 -0.063139215
-0.028044451 0.15319559 0.08452218 -0.057649232 -0.11980146 0.06701263 0.094320066 -0.10451533
00000000: e5dc 1bbe f7a3 22be 8943 f6bd 4794 31bd
00000010: b183 fcbd 4473 483d 9cc8 8abd e9d4 60bd
00000020: 6993 0bbc 3a7a d73c d881 13bd a69e c4bd
00000030: d5be 113e 3309 a93d c65d 853d 076a 37bd
00000040: eb29 903d f44b da3c 924c 0cbe f13d 493c
00000050: 41f2 8f3b 5eed b23c 557d b13c 5c75 d53d
00000060: a135 afbd 9683 cdbd 0055 01be 9cd0 ed3d
00000070: 4396 43bd 8f24 55bc 1c6d 783d 2104 4f3d
00000080: a4b5 033d 2171 d1bd 3067 b33d 1284 aabd
00000090: e232 9e3d 6539 bbbd ea1d 4abc e986 8e3c
000000a0: 8eb6 43bd d8dc fe3c fe2f 073e d8af e63d
000000b0: 36f2 e43d 306b 4bbd daee a7bc c7cd a33c
000000c0: 2c55 30b9 004c 8fbd 9c5d b03d 02f9 223e
000000d0: c749 923d 1d4d 063e 8af7 763d fc97 92bd
000000e0: f3f6 ddbd 1a20 e83c faa9 ae3d b018 173d
000000f0: faa7 1f3d ae98 b4bc a8db f2bd f14f f5bd
00000100: ab6a 343d 9d83 5e3d 50a7 43bc 1a7c 303e
00000110: 6689 463d 167a a93d 465c bd3d 17d9 23bd
00000120: d312 91bd ee35 dd3d d310 4ebb 087b a33d
00000130: d596 3ebd d10f 573d 4819 033d a617 3f3d
00000140: 72b6 28be 5a3e debd bc46 22bd a851 27be
00000150: 090c 3fbd 8819 41be 9105 97bd 52d1 a4bd
00000160: 8808 4fbd b28f bdbd 2d41 dc3d 664e 143d
00000170: f6f1 a1bb 7761 96bd 0033 a13d 3e49 05be
00000180: d8a9 92bd 64cb 05be 9d68 ae3b 9503 c43d
00000190: 8ef2 263d 6ff0 473d c88e 2cbd 6144 00be
000001a0: fe4a 183d 8e4d 1fbe b8a7 223d a133 023d
000001b0: 8f4f 62bd c217 083c 171e 8bbd 3a78 3e3d
000001c0: 1d73 91bb d13a 96bd a7d5 bbbd 0a8a 133c
000001d0: 8add d739 da59 91bd 07ef 99bd df2d 87bd
000001e0: b358 90bd bcbd 1cbe ae58 02be 4cc0 03be
000001f0: 7f66 1c3d c930 b3bd d755 01be 158a 7b3c
00000200: 3e69 73bd 7874 eb3c 29af 193d 373c 7abc
00000210: 23f2 1fbd 826b 543d 73e7 473d 5392 5dbd
00000220: 521f 2d3d 6318 bdbc 6492 07be 862c e7bd
00000230: a4d3 dcbd bba1 fdbd 3938 eabc 93cb 85bd
00000240: 8796 a03c 7fd9 2c3c ba42 ffbc 6028 f9bc
00000250: c611 e4bc 2c24 04bd be15 49bd 578c febd
00000260: 3ab6 8fbc c8ca 46bd e537 adbd ce13 153d
00000270: 10a0 a33d 566b 383d 3287 c0bd 05b5 bb3d
00000280: 1cb9 f43c f299 d03b 7a9f 423d aa01 4c3c
00000290: be5b 4dbe cb45 87bc 0003 89bc df21 a0bd
000002a0: 282d 8b3d dad7 993d ae02 f63c 1755 043e
000002b0: 1d70 103d ea68 0cbe 2352 853d 158a 593a
000002c0: bdf5 d6bd 8e8e b13c 3186 7cbd e3d2 b7bd
000002d0: 1081 d1bd a177 4dbd f209 cabd 83a4 aa3d
000002e0: 60dd 00bc 6cde 843d 5635 523d c088 d33b
000002f0: 5184 933d 64f3 883d 2dec ef3d 8da4 36bd
00000300: 2742 c3bc 7024 aebb ca68 af3d 82c8 bdbd
00000310: 2dff d5bd 5eff 26ba 22a7 48bd 0424 d33c
00000320: c098 09be 235a 4e3d 70d5 073d 76f9 043e
00000330: 2937 003e a208 ed3d 3257 d03c 7379 4dbe
00000340: 7358 4ebe 98c3 53bc 3d81 eebd a9d1 d83d
00000350: 5492 f33d 0dbe 0cbe af1b febd 82d6 08bd
00000360: 7466 0bbd f61e 9a3d 0e84 c43d c1f3 a03d
00000370: d142 03bd 7c7d 1e3d ba79 db3b 9023 033b
00000380: 2c23 c0bd 6b31 f1bc 95ad cabd c431 8ebd
00000390: eb5a bfbd 6b7b ecba 1790 393d 49c3 813d
000003a0: 4d76 b2bc e026 8d3d 831b 1b3e 7e13 fe3c
000003b0: 470c 48bd 1b4a b33c d6d2 203e 5022 4b3d
000003c0: f7bd 05bd bf0b c33d b3e1 383e dd55 413d
000003d0: 0c68 9f3d 69b8 0cbd 4699 b13d 224f 81bd
000003e0: 7abd e5bc 4edf 1c3e f719 ad3d 9a21 6cbd
000003f0: 785a f5bd eb3d 893d e12a c13d 220c d6bd

conv3.0.bias f4 [16]
-0.111715294 0.06393812 -0.020023756 0.062071882 -0.1490784 0.08117261 -0.086471 0.04288216
-0.10317891 0.08638418 0.0070298933 -0.04470541 0.054120526 -0.113369495 -0.03361237 0.017014768
00000000: fdca e4bd fdf1 823d dc08 a4bc 163f 7e3d
00000010: 02a8 18be d33d a63d b517 b1bd 34a5 2f3d
00000020: 774f d3bd 30ea b03d 055b e63b 051d 37bd
00000030: 7cad 5d3d 442e e8bd 20ad 09bd 8e62 8b3c

conv3.2.weight f4 [16, 16, 3, 3]
-0.08167886 -0.14251168 -0.062484853 -0.021672051 0.012189936 -0.014444564 0.09022123 0.02250276
-0.03357584 -0.0273786 -0.0034267872 0.003711975 0.06270961 0.13254218 0.12641558 -0.03040453
0.0986409 0.010344385 -0.023188828 0.008205237 -0.021448893 0.06960569 0.028261594 0.091252156
0.06051261 0.0529681 -0.03555862 -0.024654819 -0.060949128 -0.118584245 -0.076726444 0.082128875
0.12277131 0.018395966 0.14845604 0.14589289 0.037897043 0.03985179 0.009710759 -0.029522134
0.0077657034 -0.096836776 0.0069780173 -0.043724682 -0.025471559 0.053670812 -0.02462976 0.02016623
0.033792023 -0.0135776615 0.044926867 -0.072392054 -0.07257313 -0.07577098 0.028399618 0.0063986233
-0.06802224 -0.114600204 0.029958455 -0.040232413 -0.10466543 0.031376448 -0.0801701 0.020360505
-0.00016610362 0.07133681 -0.098000914 0.02122911 -0.09702994 0.022421809 0.09988475 0.09139743
-0.09858551 0.019419312 -0.050901555 -0.048478838 -0.0067161713 0.022007093 -0.07132301 -0.0014662342
0.005786649 -0.01873861 -0.006798956 0.027259251 0.118242055 0.059280846 0.11556677 0.081058644
0.090748705 -0.037488144 -0.08239946 -0.12574749 0.0068501644 0.063469656 -0.0021390643 0.051790006
-0.06705715 -0.07935662 -0.06159966 -0.049287736 -0.02517459 -0.058407776 0.04169716 -0.10082586
-0.038308963 -0.07650229 -0.116631985 0.0312111 -0.023387209 -0.10178806 -0.11492688 -0.13205169
-0.15186167 -0.17691498 -0.1531368 -0.03958904 -0.1371044 0.013049332 -0.016604561 -0.07933019
0.028691296 -0.015681226 -0.04421848 0.026290288 0.04663858 -0.02678835 -0.11665949 -0.06371904
-0.10581734 -0.030198468 -0.11931913 -0.009242453 -0.010176005 -0.019417278 0.030967815 -0.029726297
-0.032102916 -0.021924065 -0.092008226 -0.088212885 0.01175028 0.032286 0.04861707 0.033779137
-0.09073911 -0.12196289 -0.11535019 0.024782104 -0.085872486 0.021523157 0.056742758 0.094723046
0.13860148 0.048671693 -0.041976374 -0.06329137 -0.029689813 -0.048004467 -0.0619539 -0.14172207
-0.14938119 -0.13040864 -0.070105925 0.0478306 0.08782606 -0.048389457 -0.04288751 0.06817801
-0.029151915 -0.024024881 0.1613118 0.01532237 -0.002601068 0.11072082 0.025427803 0.0071147755
-0.031324174 0.024319982 0.094407976 -0.09058582 -0.16997534 -0.06686081 -0.019649398 -0.057277147
-0.010681694 -0.044580806 -0.05305482 -0.0048838803 -0.13592827 0.04186073 0.020616451 0.037897922
0.02208999 0.0012455876 -0.012966182 -0.01756056 -0.09501281 -0.12049593 0.06409043 0.020476906
-0.004273693 -0.07073803 -0.10653737 0.026050258 -0.13769783 -0.14126854 -0.023784695 0.015021911
-0.022626877 0.09626716 -0.12563902 0.032747094 -0.06301645 -0.096373685 -0.0285211 -0.029857932
-0.17388459 -0.023151634 0.09571433 -0.20540531 -0.15694384 -0.08819909 -0.09258382 -0.10030791
-0.06500735 0.046752278 -0.06901887 0.0739759 -0.0016390365 0.017369311 -0.14542551 -0.14407538
0.0071561877 -0.09753307 0.02161134 0.020734655 -0.03829475 0.056017417 -0.07231383 -0.024227014
0.011088906 0.01626045 -0.050948553 0.021341596 0.060532644 0.004018905 -0.05294823 0.053667285
-0.07679792 0.06528136 0.01731942 -0.050915636 -0.040812396 -0.058255672 -0.047395866 -0.10550174
00000000: 3f47 a7bd 95ee 11be 1ef0 7fbd 9689 b1bc
00000010: 4cb8 473c e4a8 6cbc e9c5 b83d b557 b83c
00000020: d286 09bd 1649 e0bc f393 60bb 9b44 733b
00000030: e56d 803d 23b9 073e 1673 013e ec12 f9bc
00000040: 3d04 ca3d 7f7b 293c 7ff6 bdbc 426f 063c
00000050: 97b5 afbc 6e8d 8e3d dc84 e73c 69e2 ba3d
00000060: 12dc 773d 14f5 583d eaa5 11bd e7f8 c9bc
00000070: cba5 79bd 4cdc f2bd c122 9dbd 2f33 a83d
00000080: 866f fb3d 23b3 963c dc04 183e f264 153e
00000090: ee39 1b3d a13b 233d e019 1f3c 67d8 f1bc
000000a0: 7177 fe3b 5c52 c6bd daa7 e43b a718 33bd
000000b0: bba9 d0bc edd5 5b3d 5ac4 c9bc a633 a53c
000000c0: 8169 0a3d d774 5ebc 3c05 383d 4942 94bd
000000d0: 39a1 94bd d12d 9bbd 51a6 e83c 8bab d13b
000000e0: 3f4f 8bbd 83b3 eabd 6f6b f53c beca 24bd
000000f0: d45a d6bd 9784 003d 3930 a4bd 13cb a63c
00000100: 1a2c 2eb9 0919 923d b4b4 c8bd ace8 ad3c
00000110: a2b7 c6bd f1ad b73c 6090 cc3d 932e bb3d
00000120: 33e7 c9bd 4015 9f3c 267e 50bd bf91 46bd
00000130: 5413 dcbb 3848 b43c cc11 92bd a82e c0ba
00000140: ee9d bd3b b781 99bc c7c9 debb cb4e df3c
00000150: e428 f23d 79d0 723d 45ae ec3d 1302 a63d
00000160: 75da b93d 2b8d 19bd 0cc1 a8bd f3c3 00be
00000170: 5877 e03b 61fc 813d 8b2f 0cbb c221 543d
00000180: 4255 89bd b985 a2bd ed4f 7cbd f0e1 49bd
00000190: f13a cebc fe3c 6fbd a4ca 2a3d ca7d cebd
000001a0: dce9 1cbd 3cad 9cbd c0dc eebd 6cae ff3c
000001b0: 8896 bfbc 4276 d0bd c95e ebbd 8f38 07be
000001c0: a081 1bbe 3329 35be e5cf 1cbe 1e28 22bd
000001d0: 1965 0cbe decc 553c 4a06 88bc de77 a2bd
000001e0: 020a eb3c ea75 80bc 701e 35bd bb5e d73c
000001f0: 1808 3f3d 3e73 dbbc 2ceb eebd 217f 82bd
00000200: c3b6 d8bd c762 f7bc 975d f4bd a86d 17bc
00000210: 42b9 26bc fc10 9fbc 37b0 fd3c 9084 f3bc
00000220: 597e 03bd 199a b3bc cf6e bcbd f5a8 b4bd
00000230: 3f84 403c 533e 043d b122 473d fe5b 0a3d
00000240: 6dd5 b9bd aec7 f9bd b83c ecbd d703 cb3c
00000250: eadd afbd 5551 b03c 186b 683d 28fe c13d
00000260: 8ced 0d3e f85b 473d 6bef 2bbd e89e 81bd
00000270: 0d38 f3bc 55a0 44bd 5fc3 7dbd 971f 11be
00000280: 62f7 18be d889 05be b293 8fbd 05ea 433d
00000290: 26de b33d 0634 46bd d0aa 2fbd eaa0 8b3d
000002a0: ffcf eebc d4cf c4bc ec2e 253e ae0a 7b3c
000002b0: ae76 2abb 99c1 e23d f84d d03c 1023 e93b
000002c0: c74d 00bd b33a c73c f858 c13d 0f85 b9bd
000002d0: 040e 2ebe 52ee 88bd c6f7 a0bc 719b 6abd
000002e0: 4602 2fbc 5d9a 36bd 0350 59bd f508 a0bb
000002f0: c830 0bbe 2876 2b3d d5e3 a83c da3a 1b3d
00000300: 11f6 b43c fc42 a33a 1c70 54bc 2adb 8fbc
00000310: 1396 c2bd 92c6 f6bd d841 833d 2fbf a73c
00000320: 560a 8cbb 1adf 90bd 4430 dabd 5a67 d53c
00000330: a900 0dbe b3a8 10be 1fd8 c2bc 761e 763c
00000340: 005c b9bc b727 c53d 84a7 00be d121 063d
00000350: c50e 81bd 915f c5bd 15a5 e9bc 9f98 f4bc
00000360: cd0e 32be 7fa8 bdbc e005 c43d c555 52be
00000370: e3b5 20be b9a1 b4bd 969c bdbd 3c6e cdbd
00000380: 9322 85bd 517f 3f3d c459 8dbd ad80 973d
00000390: f0d4 d6ba 164a 8e3c 6dea 14be 7f88 13be
000003a0: 747e ea3b 6bbf c7bd 440a b13c b9db a93c
000003b0: f5da 1cbd 8572 653d 4619 94bd bb77 c6bc
000003c0: 3eae 353c a334 853c 6eaf 50bd 92d4 ae3c
000003d0: 14f1 773d 05b1 833b 3ee0 58bd 3ad2 5b3d
000003e0: 3a48 9dbd 3cb2 853d 75e1 8d3c ea8c 50bd
000003f0: e62a 27bd 809d 6ebd 2b22 42bd 4c11 d8bd

conv3.2.bias f4 [16]
0.12344511 0.10534894 0.011142516 -0.051290374 -0.061341863 0.06177126 -0.06361878 0.06421879
-0.0640676 -0.094644226 -0.09607346 -0.10892429 -0.016494906 0.1185974 -0.011675647 -0.07663517
00000000: cad0 fc3d 2fc1 d73d 198f 363c db15 52bd
00000010: 9b41 7bbd dc03 7d3d 904a 82bd 2485 833d
00000020: e035 83bd d5d4 c1bd 2ac2 c4bd b313 dfbd
00000030: 5320 87bc 32e3 f23d 374b 3fbc e6f2 9cbd

dense_layers.0.weight f4 [10, 1536]
-0.09696016 -0.00868471 -0.0027510822 0.010359983 0.007607555 -0.021932589 -0.120098256 0.0048157023
0.040799547 0.0037091176 0.00064122566 -0.07488028 -0.019205302 -0.02247005 -0.0051831724 0.014437424
0.004405865 -0.09281241 -0.08191474 -0.024887415 0.01766404 0.020993209 0.0014364793 -0.04780438
-0.09714565 -0.09329059 -0.037696693 -0.015152008 -0.072930895 -0.10429328 -0.0715799 -0.056520026
-0.037409436 -0.024795972 -0.052211586 -0.06170764 -0.10038005 -0.13299657 -0.14076537 -0.11029712
-0.11045755 -0.0694536 -0.054150764 -0.06909366 -0.05349743 -0.098068096 -0.046382926 -0.043705586
-0.011935459 0.014269806 0.05148317 0.05151981 -0.012463215 0.015280717 -0.042389303 -0.0101659885
0.023602674 0.049583502 0.0063269776 0.013858765 -0.031868793 -0.06295932 -0.016634934 -0.004927461
-0.024278352 0.0048662075 -0.032549765 -0.017042993 0.018168826 0.0010951378 0.0054436433 -0.0029790928
-0.041885518 -0.043524195 -0.04836721 -0.08957978 -0.053725142 -0.024322934 -0.01602292 -0.02058438
-0.012126238 -0.032860976 -0.0024938383 0.026152464 -0.018191507 0.010135974 0.006247073 0.021656705
0.005731787 0.009288309 -0.027909657 -0.030874463 0.004401545 -0.039317384 -0.011964619 -0.021068802
0.000569374 -0.018623797 -0.009172323 0.04998496 0.01859128 0.007310841 -0.06704222 -0.065551095
-0.088723175 -0.15379046 -0.08386912 -0.034795564 0.023881711 -0.008432288 0.043702673 0.031525433
-0.0139815975 -0.0122047 0.01244639 -0.002150396 0.013297601 -0.018389508 -0.07849633 -0.0064377305
0.029972127 -0.016162459 -0.021663278 0.032292403 0.005250505 -0.00029106566 0.03884012 0.080562405
0.0758838 0.046034865 0.034096755 0.05816044 0.045332663 0.030933708 0.019833367 0.040451627
0.030452704 0.003255305 0.06787073 0.005561696 -0.030592095 -0.012246747 -0.015497993 -0.021972451
0.075780466 -0.0480316 -0.05963944 -0.09468815 -0.0953771 -0.054163232 0.045299508 0.06689909
0.06853934 0.06964573 0.06292614 0.03511477 0.024681157 -0.05703504 -0.10434042 -0.08552594
-0.060572043 -0.022251261 0.013880741 0.06887127 0.051026013 0.10811813 0.061966848 -0.022176914
-0.010803578 -0.023905363 0.0073968195 0.0072359843 0.038296886 -0.021539519 -0.027304335 -0.0096942885
-0.050691407 -0.034729898 -0.020248167 -0.050430723 -0.025788995 -0.011557729 -0.042330287 -0.0101540685
-0.0128815025 -0.0072900117 -0.022963347 -0.02024425 -0.03064123 -0.052436713 -0.06624588 -0.031436067
0.07930043 0.034925215 0.037298605 0.040153965 0.061478887 0.049879506 -0.041359942 -0.0009492078
0.0417761 0.048094247 0.033633243 0.019415753 -0.017817581 -0.0050416277 -0.039335817 -0.022188833
-0.04746494 -0.033633374 0.050708544 -0.0076062996 0.03250463 0.024914507 -0.005075914 0.028289251
0.02359134 -0.027712483 -0.009992813 -0.041755054 -0.046780523 -0.069126956 0.01126574 -0.0027435303
0.017346304 -0.0053598196 0.02370685 0.034289774 0.009586593 0.0599549 0.015131577 -0.011698052
-0.021039665 0.022595616 0.05750272 0.047191624 0.049871933 0.05061955 0.057036728 0.005106683
0.033539876 -0.0469333 -0.08340682 -0.09460012 -0.10890078 -0.11277755 0.076331 0.021131134
-0.0063487156 -0.017382415 -0.004055501 -0.06531794 0.021980949 0.031350624 0.018913092 -0.0021807859
00000000: 0c93 c6bd 504a 0ebc 804b 34bb ebbc 293c
00000010: cc48 f93b f9ab b3bc 13f6 f5bd 0acd 9d3b
00000020: 6d1d 273d ab14 733b ed17 283a d55a 99bd
00000030: 7054 9dbc 1c13 b8bc 9ad7 a9bb f28a 6c3c
00000040: 135f 903b 6f14 bebd eac2 a7bd b1e0 cbbc
00000050: 2db4 903c f3f9 ab3c 3f48 bc3a 87ce 43bd
00000060: 4cf4 c6bd 230f bfbd d967 1abd 2140 78bc
00000070: cb5c 95bd b797 d5bd 7c98 92bd 8b81 67bd
00000080: a33a 19bd ec20 cbbc d1db 55bd 26c1 7cbd
00000090: 0e94 cdbd 4130 08be cc24 10be 75e3 e1bd
000000a0: 9137 e2bd b03d 8ebd 31cd 5dbd fa80 8dbd
000000b0: 1f20 5bbd edd7 c8bd 06fc 3dbd a104 33bd
000000c0: f28c 43bc e8cb 693c 04e0 523d 7006 533d
000000d0: 8332 4cbc f95b 7a3c 68a0 2dbd 3f8f 26bc
000000e0: 655a c13c 1218 4b3d 8952 cf3b e00f 633c
000000f0: da88 02bd d1f0 80bd fc45 88bc 8a76 a1bb
00000100: 65e3 c6bc b574 9f3b e752 05bd bf9d 8bbc
00000110: cad6 943c ba8a 8f3a 9760 b23b e23c 43bb
00000120: 2690 2bbd 6d46 32bd b21c 46bd 9b75 b7bd
00000130: e50e 5cbd e440 c7bc 8042 83bc 93a0 a8bc
00000140: 21ad 46bc 3b99 06bd aa6f 23bb b13d d63c
00000150: 5b06 95bc 5b11 263c 3fb4 cc3b 6769 b13c
00000160: b7d1 bb3b fe2d 183c cba2 e4bc 71ec fcbc
00000170: d63a 903b 440b 21bd 4007 44bc 7b98 acbc
00000180: 0b42 153a ef90 98bc 8347 16bc 08bd 4c3d
00000190: bd4c 983c c88f ef3b 6e4d 89bd a73f 86bd
000001a0: 7fb4 b5bd 3f7b 1dbe 93c3 abbd cb85 0ebd
000001b0: 94a3 c33c 9427 0abc 9301 333d d020 013d
000001c0: 1213 65bc 39f6 47bc f2eb 4b3c a8ed 0cbb
000001d0: 2ede 593c 98a5 96bc afc2 a0bd 99f3 d2bb
000001e0: 1b88 f53c 2267 84bc 3077 b1bc 0a45 043d
000001f0: 6e0c ac3b 2c9a 98b9 d116 1f3d e7fd a43d
00000200: f768 9b3d 0e8f 3c3d 0aa9 0b3d a439 6e3d
00000210: beae 393d b068 fd3c 9679 a23c 9bb0 253d
00000220: f377 f93c f556 553b cfff 8a3d e33e b63b
00000230: 469c fabc 94a6 48bc 4beb 7dbc 92ff b3bc
00000240: ca32 9b3d c8bc 44bd 7c48 74bd dceb c1bd
00000250: 1255 c3bd 44da 5dbd fa8b 393d 6402 893d
00000260: 5a5e 8c3d 6ca2 8e3d 6cdf 803d 81d4 0f3d
00000270: 2330 ca3c 939d 69bd 6eb0 d5bd 3928 afbd
00000280: 641a 78bd 4748 b6bc 0c6c 633c 610c 8d3d
00000290: a700 513d 0a6d dd3d f3d0 7d3d 5cac b5bc
000002a0: 7e01 31bc 2ed5 c3bc 0561 f23b d61b ed3b
000002b0: 32dd 1c3d a573 b0bc 57ad dfbc cbd4 1ebc
000002c0: cba1 4fbd f040 0ebd 7cdf a5bc 7290 4ebd
000002d0: 7143 d3bc a15c 3dbc 8662 2dbd 405d 26bc
000002e0: f00c 53bc 0de1 eebb a11d bcbc 45d7 a5bc
000002f0: 5103 fbbc e1c7 56bd ecab 87bd 1bc3 00bd
00000300: 4468 a23d be0d 0f3d 6cc6 183d 7c78 243d
00000310: 49d1 7b3d 744e 4c3d 0b69 29bd 42d4 78ba
00000320: 6a1d 2b3d 79fe 443d 03c3 093d c90d 9f3c
00000330: 2df6 91bc 3d34 a5bb 981e 21bd 5bc5 b5bc
00000340: 996a 42bd 26c3 09bd c3b3 4f3d 443e f9bb
00000350: 9323 053d 8219 cc3c da53 a6bb dcbe e73c
00000360: a042 c13c 4a05 e3bc e5b8 23bc 5907 2bbd
00000370: ef9c 3fbd 6f92 8dbd f093 383c cdcc 33bb
00000380: d619 8e3c 6da1 afbb de34 c23c 6f73 0c3d
00000390: 1611 1d3c 4593 753d 6fea 773c 30a9 3fbc
000003a0: 605b acbc 711a b93c f987 6b3d 014c 413d
000003b0: 8346 4c3d 7256 4f3d 589f 693d f655 a73b
000003c0: 1c61 093d 223d 40bd 32d1 aabd b5bd c1bd
000003d0: 5f07 dfbd ebf7 e6bd 6d53 9c3d 331b ad3c
000003e0: e308 d0bb 9165 8ebc 02e4 84bb 6ac5 85bd
000003f0: 6411 b43c 8369 003d a1ef 9a3c 84eb 0ebb

dense_layers.0.bias f4 [10]
-0.041966822 -0.020578044 0.03011492 -0.03126863 0.043819096 0.02255316 0.018214053 -0.046070196
0.056389183 0.02725168
00000000: 67e5 2bbd 4993 a8bc 91b3 f63c 8913 00bd
00000010: a77b 333d 68c1 b83c a335 953c 1ab4 3cbd
00000020: 58f8 663d ea3e df3c

dense_layers.2.weight f4 [2, 10]
-0.30338892 0.15165815 0.13770162 -0.33153334 0.23821639 0.24020632 0.022916446 -0.32640764
-0.016250582 0.03152046 0.11426783 0.31164327 -0.2293016 -0.156059 -0.15370132 -0.15122263
-0.14456266 -0.009600031 -0.28505307 -0.29666072
00000000: cb55 9bbe 464c 1b3e a701 0d3e bdbe a9be
00000010: ffee 733e a5f8 753e 45bb bb3c e71e a7be
00000020: f11f 85bc 991b 013d 4105 ea3d b58f 9f3e
00000030: 0ace 6abe eecd 1fbe e163 1dbe 1bda 1abe
00000040: 3c08 14be 7349 1dbc 7af2 91be eae3 97be

dense_layers.2.bias f4 [2]
-0.013731975 0.065481514
00000000: 14fc 60bc 2c1b 863d

exp_avg f4 [4, 1, 3, 3]
0.00067396293 -4.0248753e-05 0.0017204449 0.00075311586 -0.0006512183 -0.0001856303 0.0005517735 -0.001020214
-0.00019572713 -0.00030256377 0.011081719 -0.0040419064 0.0018354018 0.011604122 -0.006054947 -0.00071849895
0.0064159213 -0.010117785 0.004117754 0.0072821984 0.0016123805 0.008612237 0.009904186 0.0060159042
0.0059668454 0.0005356912 0.0017887682 -0.0009885364 0.00015795838 -3.2742963e-05 -0.0011512124 0.00010050189
-2.7537744e-05 -0.0007090893 0.00010475314 -0.00024662408
00000000: e3ac 303a c5d0 28b8 8d80 e13a c06c 453a
00000010: 85b6 2aba c1a5 42b9 e5a4 103a b4b8 85ba
00000020: 1a3c 4db9 6ca1 9eb9 1990 353c f871 84bb
00000030: dd91 f03a 371f 3e3c 9468 c6bb a659 3cba
00000040: a63c d23b 11c5 25bc 39ee 863b 829f ee3b
00000050: 8356 d33a 571a 0d3c 2b45 223c 1021 c53b
00000060: 8785 c33b a16d 0c3a 1a75 ea3a c791 81ba
00000070: a1a1 2539 7d55 09b8 47e4 96ba 8bc4 d238
00000080: db00 e7b7 2de2 39ba eaae db38 534d 81b9

exp_avg_sq f4 [4, 1, 3, 3]
2.0705531e-05 0.00020482438 0.0004552737 1.3176155e-05 0.00012741143 0.0001406067 6.902719e-06 7.692578e-05
3.7389098e-05 0.0025201782 0.018337414 0.0012549455 0.0015933458 0.016237058 0.0010648628 0.00064511335
0.009072234 0.0013328727 0.001238014 0.0011605021 0.0019466812 0.0026042575 0.0015379486 0.0026668867
0.0021664903 0.0005861414 0.0012888197 2.841493e-05 3.3112813e-06 6.8326003e-06 2.223426e-05 2.3500306e-06
9.0757085e-06 4.3124855e-05 3.6754527e-06 2.4954203e-05
00000000: cab0 ad37 20c6 5639 cdb1 ee39 280f 5d37
00000010: bf99 0539 d36f 1339 e89d e736 3753 a138
00000020: 3dd2 1c38 9329 253b 5838 963c fc7c a43a
00000030: d0d7 d03a 9403 853c de92 8b3a d31c 293a
00000040: b5a3 143c c9b3 ae3a db44 a23a fd1b 983a
00000050: c827 ff3a 31ac 2a3b fe94 c93a efc6 2e3b
00000060: adfb 0d3b 49a7 193a 9ded a83a 995c ee37
00000070: 6137 5e36 9743 e536 b683 ba37 38b5 1d36
00000080: df43 1837 f6e0 3438 cca7 7636 be54 d137

exp_avg f4 [4]
0.0007827547 0.0012908536 0.0016860409 0.00032267827
00000000: c731 4d3a dc31 a93a 25fe dc3a 252d a939

exp_avg_sq f4 [4]
3.1540596e-05 1.813548e-05 0.00040369257 3.8758444e-05
00000000: 754a 0438 a621 9837 b3a6 d339 9090 2238

exp_avg f4 [4, 4, 3, 3]
-0.00091918925 -0.0024443038 -0.0016229663 -0.0033280216 -0.003923222 -0.0023755517 -0.0026844097 -0.0022787245
-0.0013616638 0.012428691 0.0077245114 0.01695884 0.007935306 0.0056057703 0.013902469 0.008164707
0.004918836 0.012006618 0.0035814468 0.0046924166 0.000850281 -0.00072846346 0.0005411161 -0.0010018961
0.0019684485 0.0043717474 0.0034361838 -0.0031759792 -0.0036159104 -0.0036561897 -0.003276532 -0.0034529332
-0.003528912 -0.0028257873 -0.0032727886 -0.004196371 -0.0016040645 -0.0024872497 -0.0020698265 -0.002899377
-0.0033854463 -0.0025289068 -0.0012436237 -0.00031710655 -0.0009977205 0.0051077674 0.0040309057 0.0058137197
0.0058483314 0.009674036 0.009988206 0.0087187085 0.012029308 0.01131689 0.0008557718 0.0005051736
0.0011069701 -0.000984827 -0.00075378706 0.0015096492 0.005533471 0.006418848 0.008083124 -0.0024243721
-0.002461879 -0.0020059107 -0.0026134904 -0.0027678795 -0.0018635264 -0.002770743 -0.0030695493 -0.0023413307
0.002721499 -3.8953463e-06 0.0010830524 0.0013768912 0.00029115504 0.0013097257 0.00017951785 6.770527e-05
0.0001992491 0.0071755988 0.0039551724 0.012967897 0.0017583444 -0.00037382168 0.006467443 -0.00093184283
-0.002607768 0.0016793411 0.003861077 0.005666064 0.00089724036 -0.0018420584 2.4832563e-05 -0.003624353
-0.00066293776 0.00089970516 -0.0019634822 -0.00022916941 -0.00047553223 -0.0006127366 -0.000119329336 -0.0001456438
-0.00043927907 5.2862317e-05 -7.470594e-05 -0.00024046219 0.0011439036 0.00057134876 0.00070264307 0.0011318934
0.00045730697 0.0007212657 0.00090285466 0.0011352872 0.0013384713 -0.0033980703 -0.003867294 -0.003172187
-0.0031153038 -0.004100237 -0.0026763491 -0.002979025 -0.0037800502 -0.0030718972 -0.0012690496 -0.00064816186
-0.0014605492 -0.00091565656 -0.0008207736 -0.0013036972 -0.0003580804 0.00018812403 0.00018724531 0.0010625974
0.0013116304 0.0011061993 0.0010745644 0.0011630803 0.0009133895 0.0011254832 0.0011404705 0.00088318606
00000000: bff5 70ba 9d30 20bb b6b9 d4ba f01a 5abb
00000010: 5f8e 80bb 25af 1bbb ecec 2fbb a756 15bb
00000020: db79 b2ba b5a1 4b3c e61d fd3b 44ed 8a3c
00000030: 1603 023c 9cb0 b73b 2ec7 633c 43c5 053c
00000040: 302e a13b 68b7 443c b5b6 6a3b d8c2 993b
00000050: 64e5 5e3a 5bf6 3eba b0d9 0d3a 0e52 83ba
00000060: 1601 013b e040 8f3b 9931 613b 1724 50bb
00000070: e9f8 6cbb af9c 6fbb 16bb 56bb 9b4a 62bb
00000080: 5245 67bb d830 39bb 487c 56bb b681 89bb
00000090: 793f d2ba 2001 23bb eda5 07bb 7903 3ebb
000000a0: 5dde 5dbb 04bc 25bb 1601 a3ba 5241 a6b9
000000b0: f2c5 82ba 0f5f a73b b015 843b 0481 be3b
000000c0: 5ca3 bf3b d97f 1e3c 93a5 233c ead8 0e3c
000000d0: 9316 453c 7a6a 393c e055 603a a06d 043a
000000e0: c117 913a 5015 81ba cb99 45ba 6cdf c53a
000000f0: 1e52 b53b 3355 d23b 146f 043c 37e2 1ebb
00000100: 7a57 21bb 9975 03bb 1847 2bbb 5065 35bb
00000110: 9241 f4ba 5b95 35bb 7e2a 49bb 0371 19bb
00000120: 2d5b 323b c5b4 82b6 35f5 8d3a cd78 b43a
00000130: 2ba6 9839 1aab ab3a f53c 3c39 fdfc 8d38
00000140: 86ed 5039 4921 eb3b 649a 813b 4d77 543c
00000150: 3f78 e63a 7ffd c3b9 d8ec d33b ea46 74ba
00000160: 16e7 2abb 561d dc3a 1f0a 7d3b 64aa b93b
00000170: c834 6b3a 3971 f1ba 864f d037 8e86 6dbb
00000180: 00c9 2dba 31da 6b3a c4ad 00bb 324d 70b9
00000190: db50 f9b9 0fa0 20ba 7340 fab8 f6b7 18b9
000001a0: 0a4f e6b9 7bb8 5d38 72ab 9cb8 9424 7cb9
000001b0: 09ef 953a 91c6 153a 9431 383a 0a5c 943a
000001c0: b4c2 ef39 5213 3d3a 8dad 6c3a ebcd 943a
000001d0: a56f af3a 29b2 5ebb 6d72 7dbb 77e4 4fbb
000001e0: 202a 4cbb 485b 86bb b065 2fbb bf3b 43bb
000001f0: b8ba 77bb e251 49bb 3d56 a6ba 68e9 29ba
00000200: e66f bfba ac08 70ba 2f29 57ba d2e0 aaba
00000210: bdbc bbb9 2943 4539 4857 4439 da46 8b3a
00000220: 03eb ab3a e4fd 903a 66d8 8c3a 8072 983a
00000230: 8870 6f3a f384 933a d77b 953a 9d85 673a

exp_avg_sq f4 [4, 4, 3, 3]
0.00020039862 0.0003578893 0.00040824097 0.0004995254 0.00055041927 0.00041236 0.00034683518 0.00018895805
0.00013223776 0.03149195 0.01953579 0.050838713 0.025147747 0.017335348 0.050618045 0.023195641
0.015557143 0.045661975 0.0022984408 0.0022222663 0.00038453704 0.0006008571 0.0013532789 0.0004321263
0.0012916855 0.003786207 0.0017058548 0.00026251242 0.00035034047 0.00041067318 0.00028313987 0.00031919242
0.00042469997 0.00022978261 0.00031069622 0.00051633664 0.00020395232 0.00021979847 0.00028541137 0.00037982952
0.00031623733 0.00038649642 0.00015816728 9.494028e-05 0.00021660095 0.0025911264 0.0031927838 0.0016717808
0.0027271137 0.005678839 0.0036528434 0.0038885428 0.007965897 0.0053109885 0.00019753235 5.4979853e-05
0.00023789762 0.00016692445 0.00012038057 0.00043936772 0.0008523658 0.00075086695 0.0014425406 0.00013222886
0.00014561128 9.048559e-05 0.0001809331 0.00019949242 0.00010331106 0.00019641581 0.00026289403 0.0001596137
3.91569e-05 4.0691255e-05 0.00014668421 1.8375575e-05 4.755566e-05 0.00021396512 8.861665e-06 3.688501e-05
0.000105013096 0.04125237 0.020710256 0.049218122 0.01861656 0.01001586 0.027252343 0.00656418
0.0035364227 0.011595624 0.0026742644 0.0053876904 0.0033989628 0.0010098811 0.002993804 0.0019813892
0.00016413345 0.0008719709 0.0004643819 6.408685e-06 5.9545623e-06 6.1885885e-06 5.252759e-06 4.390435e-06
5.367902e-06 3.5269663e-06 2.9229202e-06 4.1048415e-06 2.9721232e-05 1.5324347e-05 2.226748e-05 2.8602208e-05
1.54253e-05 2.785107e-05 2.1579997e-05 2.166448e-05 3.093026e-05 0.0008582166 0.000959402 0.00057097856
0.0016057394 0.0013344878 0.0004882839 0.0026966524 0.0017326996 0.00069140014 4.9054837e-05 2.4197767e-05
8.909055e-05 7.669711e-05 6.25949e-05 5.2296204e-05 7.077743e-05 5.4634515e-05 2.9235514e-05 2.4002322e-05
2.9872755e-05 2.4608073e-05 2.0030122e-05 2.152839e-05 1.7698996e-05 1.8085964e-05 1.6769474e-05 1.5066103e-05
00000000: 1822 5239 17a3 bb39 2d09 d639 95f2 023a
00000010: 034a 103a 0632 d839 6ed7 b539 0a23 4639
00000020: 4ea9 0a39 b4fd 003d 8509 a03c 413c 503d
00000030: a602 ce3c dc02 8e3c de54 4f3d c904 be3c
00000040: 63e3 7e3c 0d08 3b3d 70a1 163b 71a3 113b
00000050: b09b c939 d682 1d3a 8160 b13a 038f e239
00000060: c64d a93a 0322 783b fd96 df3a d2a1 8939
00000070: e7ad b739 9f4f d739 6472 9439 4859 a739
00000080: 44aa de39 cdf1 7039 f1e4 a239 c45a 073a
00000090: 09dc 5539 b479 6639 44a3 9539 db23 c739
000000a0: a8cc a539 aca2 ca39 b5d9 2539 ad1a c738
000000b0: 601f 6339 e3cf 293b 063e 513b a81f db3a
000000c0: 60b9 323b 8e15 ba3b 8b64 6f3b ecd6 7e3b
000000d0: 6583 023c cd07 ae3b b020 4f39 2b9a 6638
000000e0: 2874 7939 7108 2f39 d474 fc38 f05a e639
000000f0: 4d71 5f3a d4d5 443a a113 bd3a eaa6 0a39
00000100: 3baf 1839 15c3 bd38 dcb8 3d39 d72e 5139
00000110: b4a8 d838 f8f4 4d39 0ad5 8939 fa5d 2739
00000120: 673c 2438 e7ab 2a38 3ecf 1939 3f25 9a37
00000130: 8076 4738 d35b 6039 90ac 1437 fab4 1a38
00000140: 7a3a dc38 3ff8 283d 8ea8 a93c f198 493d
00000150: c281 983c 9019 243c 4e40 df3c 5518 d73b
00000160: 54c3 673b 92fb 3d3c b642 2f3b 398b b03b
00000170: 22c1 5e3b fd5d 843a b233 443b 32da 013b
00000180: 3d1b 2c39 fa94 643a 4978 f339 2f0a d736
00000190: 4dcd c736 92a7 cf36 db40 b036 8d51 9336
000001a0: ed1d b436 d2b0 6c36 6327 4436 52bc 8936
000001b0: dc51 f937 c98c 8037 0dcb ba37 c6ee ef37
000001c0: 9465 8137 b8a1 e937 b106 b537 1ebc b537
000001d0: 1dbb 0138 f1f9 603a 6180 7b3a b9ad 153a
000001e0: ac77 d23a fbe9 ae3a 2e00 003a 52ba 303b
000001f0: c01b e33a 143f 353a 3bc0 4d38 4ffc ca37
00000200: 20d6 ba38 73d8 a038 6245 8338 9f58 5b38
00000210: 586e 9438 5d27 6538 ca3e f537 9858 c937
00000220: 4197 fa37 6f6d ce37 5c06 a837 de97 b437
00000230: 4e78 9437 50b7 9737 2cac 8c37 6bc4 7c37

exp_avg f4 [4]
0.007875044 0.00529913 0.0005537431 -0.0030546947
00000000: 5406 013c 53a4 ad3b 1229 113a 4631 48bb

exp_avg_sq f4 [4]
0.0062359376 0.003500165 0.00012475837 0.0003257462
00000000: d656 cc3b 0663 653b 92d1 0239 eac8 aa39
